…
itrary objects will no longer be allowed to be loaded via this mode unless they are explicitly allowlisted by the user via `torch.serialization.add_safe_globals`. We recommend you start setting `weights_only=True` for any use case where you don't have full control of the loaded file. Please open an issue on GitHub for any issues related to this experimental feature.\n",
      "  ckpt = torch.load(file, map_location=\"cpu\")\n"
     ]
    },
    {
     "data": {
      "text/plain": [
       "WiLoR(\n",
       "  (backbone): ViT(\n",
       "    (patch_embed): PatchEmbed(\n",
       "      (proj): Conv2d(3, 1280, kernel_size=(16, 16), stride=(16, 16), padding=(2, 2))\n",
       "    )\n",
       "    (pose_emb): Linear(in_features=6, out_features=1280, bias=True)\n",
       "    (shape_emb): Linear(in_features=10, out_features=1280, bias=True)\n",
       "    (cam_emb): Linear(in_features=3, out_features=1280, bias=True)\n",
       "    (decpose): Linear(in_features=1280, out_features=6, bias=True)\n",
       "    (decshape): Linear(in_features=1280, out_features=10, bias=True)\n",
       "    (deccam): Linear(in_features=1280, out_features=3, bias=True)\n",
       "    (blocks): ModuleList(\n",
       "      (0): Block(\n",
       "        (norm1): LayerNorm((1280,), eps=1e-06, elementwise_affine=True)\n",
       "        (attn): Attention(\n",
       "          (qkv): Linear(in_features=1280, out_features=3840, bias=True)\n",
       "          (attn_drop): Dropout(p=0.0, inplace=False)\n",
       "          (proj): Linear(in_features=1280, out_features=1280, bias=True)\n",
       "          (proj_drop): Dropout(p=0.0, inplace=False)\n",
       "        )\n",
       "        (drop_path): Identity()\n",
       "        (norm2): LayerNorm((1280,), eps=1e-06, elementwise_affine=True)\n",
       "        (mlp): Mlp(\n",
       "          (fc1): Linear(in_features=1280, out_features=5120, bias=True)\n",
       "          (act): GELU(approximate='none')\n",
       "          (fc2): Linear(in_features=5120, out_features=1280, bias=True)\n",
       "          (drop): Dropout(p=0.0, inplace=False)\n",
       "        )\n",
       "      )\n",
       "      (1): Block(\n",
       "        (norm1): LayerNorm((1280,), eps=1e-06, elementwise_affine=True)\n",
       "        (attn): Attention(\n",
       "          (qkv): Linear(in_features=1280, out_features=3840, bias=True)\n",
       "          (attn_drop): Dropout(p=0.0, inplace=False)\n",
       "          (proj): Linear(in_features=1280, out_features=1280, bias=True)\n",
       "          (proj_drop): Dropout(p=0.0, inplace=False)\n",
       "        )\n",
       "        (drop_path): DropPath(p=0.017741935327649117)\n",
       "        (norm2): LayerNorm((1280,), eps=1e-06, elementwise_affine=True)\n",
       "        (mlp): Mlp(\n",
       "          (fc1): Linear(in_features=1280, out_features=5120, bias=True)\n",
       "          (act): GELU(approximate='none')\n",
       "          (fc2): Linear(in_features=5120, out_features=1280, bias=True)\n",
       "          (drop): Dropout(p=0.0, inplace=False)\n",
       "        )\n",
       "      )\n",
       "      (2): Block(\n",
       "        (norm1): LayerNorm((1280,), eps=1e-06, elementwise_affine=True)\n",
       "        (attn): Attention(\n",
       "          (qkv): Linear(in_features=1280, out_features=3840, bias=True)\n",
       "          (attn_drop): Dropout(p=0.0, inplace=False)\n",
       "          (proj): Linear(in_features=1280, out_features=1280, bias=True)\n",
       "          (proj_drop): Dropout(p=0.0, inplace=False)\n",
       "        )\n",
       "        (drop_path): DropPath(p=0.03548387065529823)\n",
       "        (norm2): LayerNorm((1280,), eps=1e-06, elementwise_affine=True)\n",
       "        (mlp): Mlp(\n",
       "          (fc1): Linear(in_features=1280, out_features=5120, bias=True)\n",
       "          (act): GELU(approximate='none')\n",
       "          (fc2): Linear(in_features=5120, out_features=1280, bias=True)\n",
       "          (drop): Dropout(p=0.0, inplace=False)\n",
       "        )\n",
       "      )\n",
       "      (3): Block(\n",
       "        (norm1): LayerNorm((1280,), eps=1e-06, elementwise_affine=True)\n",
       "        (attn): Attention(\n",
       "          (qkv): Linear(in_features=1280, out_features=3840, bias=True)\n",
       "          (attn_drop): Dropout(p=0.0, inplace=False)\n",
       "          (proj): Linear(in_features=1280, out_features=1280, bias=True)\n",
       "          (proj_drop): Dropout(p=0.0, inplace=False)\n",
       "        )\n",
       "        (drop_path): DropPath(p=0.0532258078455925)\n",
       "        (norm2): LayerNorm((1280,), eps=1e-06, elementwise_affine=True)\n",
       "        (mlp): Mlp(\n",
       "          (fc1): Linear(in_features=1280, out_features=5120, bias=True)\n",
       "          (act): GELU(approximate='none')\n",
       "          (fc2): Linear(in_features=5120, out_features=1280, bias=True)\n",
       "          (drop): Dropout(p=0.0, inplace=False)\n",
       "        )\n",
       "      )\n",
       "      (4): Block(\n",
       "        (norm1): LayerNorm((1280,), eps=1e-06, elementwise_affine=True)\n",
       "        (attn): Attention(\n",
       "          (qkv): Linear(in_features=1280, out_features=3840, bias=True)\n",
       "          (attn_drop): Dropout(p=0.0, inplace=False)\n",
       "          (proj): Linear(in_features=1280, out_features=1280, bias=True)\n",
       "          (proj_drop): Dropout(p=0.0, inplace=False)\n",
       "        )\n",
       "        (drop_path): DropPath(p=0.07096774131059647)\n",
       "        (norm2): LayerNorm((1280,), eps=1e-06, elementwise_affine=True)\n",
       "        (mlp): Mlp(\n",
       "          (fc1): Linear(in_features=1280, out_features=5120, bias=True)\n",
       "          (act): GELU(approximate='none')\n",
       "          (fc2): Linear(in_features=5120, out_features=1280, bias=True)\n",
       "          (drop): Dropout(p=0.0, inplace=False)\n",
       "        )\n",
       "      )\n",
       "      (5): Block(\n",
       "        (norm1): LayerNorm((1280,), eps=1e-06, elementwise_affine=True)\n",
       "        (attn): Attention(\n",
       "          (qkv): Linear(in_features=1280, out_features=3840, bias=True)\n",
       "          (attn_drop): Dropout(p=0.0, inplace=False)\n",
       "          (proj): Linear(in_features=1280, out_features=1280, bias=True)\n",
       "          (proj_drop): Dropout(p=0.0, inplace=False)\n",
       "        )\n",
       "        (drop_path): DropPath(p=0.08870967477560043)\n",
       "        (norm2): LayerNorm((1280,), eps=1e-06, elementwise_affine=True)\n",
       "        (mlp): Mlp(\n",
       "          (fc1): Linear(in_features=1280, out_features=5120, bias=True)\n",
       "          (act): GELU(approximate='none')\n",
       "          (fc2): Linear(in_features=5120, out_features=1280, bias=True)\n",
       "          (drop): Dropout(p=0.0, inplace=False)\n",
       "        )\n",
       "      )\n",
       "      (6): Block(\n",
       "        (norm1): LayerNorm((1280,), eps=1e-06, elementwise_affine=True)\n",
       "        (attn): Attention(\n",
       "          (qkv): Linear(in_features=1280, out_features=3840, bias=True)\n",
       "          (attn_drop): Dropout(p=0.0, inplace=False)\n",
       "          (proj): Linear(in_features=1280, out_features=1280, bias=True)\n",
       "          (proj_drop): Dropout(p=0.0, inplace=False)\n",
       "        )\n",
       "        (drop_path): DropPath(p=0.106451615691185)\n",
       "        (norm2): LayerNorm((1280,), eps=1e-06, elementwise_affine=True)\n",
       "        (mlp): Mlp(\n",
       "          (fc1): Linear(in_features=1280, out_features=5120, bias=True)\n",
       "          (act): GELU(approximate='none')\n",
       "          (fc2): Linear(in_features=5120, out_features=1280, bias=True)\n",
       "          (drop): Dropout(p=0.0, inplace=False)\n",
       "        )\n",
       "      )\n",
       "      (7): Block(\n",
       "        (norm1): LayerNorm((1280,), eps=1e-06, elementwise_affine=True)\n",
       "        (attn): Attention(\n",
       "          (qkv): Linear(in_features=1280, out_features=3840, bias=True)\n",
       "          (attn_drop): Dropout(p=0.0, inplace=False)\n",
       "          (proj): Linear(in_features=1280, out_features=1280, bias=True)\n",
       "          (proj_drop): Dropout(p=0.0, inplace=False)\n",
       "        )\n",
       "        (drop_path): DropPath(p=0.12419354915618896)\n",
       "        (norm2): LayerNorm((1280,), eps=1e-06, elementwise_affine=True)\n",
       "        (mlp): Mlp(\n",
       "          (fc1): Linear(in_features=1280, out_features=5120, bias=True)\n",
       "          (act): GELU(approximate='none')\n",
       "          (fc2): Linear(in_features=5120, out_features=1280, bias=True)\n",
       "          (drop): Dropout(p=0.0, inplace=False)\n",
       "        )\n",
       "      )\n",
       "      (8): Block(\n",
       "        (norm1): LayerNorm((1280,), eps=1e-06, elementwise_affine=True)\n",
       "        (attn): Attention(\n",
       "          (qkv): Linear(in_features=1280, out_features=3840, bias=True)\n",
       "          (attn_drop): Dropout(p=0.0, inplace=False)\n",
       "          (proj): Linear(in_features=1280, out_features=1280, bias=True)\n",
       "          (proj_drop): Dropout(p=0.0, inplace=False)\n",
       "        )\n",
       "        (drop_path): DropPath(p=0.14193548262119293)\n",
       "        (norm2): LayerNorm((1280,), eps=1e-06, elementwise_affine=True)\n",
       "        (mlp): Mlp(\n",
       "          (fc1): Linear(in_features=1280, out_features=5120, bias=True)\n",
       "          (act): GELU(approximate='none')\n",
       "          (fc2): Linear(in_features=5120, out_features=1280, bias=True)\n",
       "          (drop): Dropout(p=0.0, inplace=False)\n",
       "        )\n",
       "      )\n",
       "      (9): Block(\n",
       "        (norm1): LayerNorm((1280,), eps=1e-06, elementwise_affine=True)\n",
       "        (attn): Attention(\n",
       "          (qkv): Linear(in_features=1280, out_features=3840, bias=True)\n",
       "          (attn_drop): Dropout(p=0.0, inplace=False)\n",
       "          (proj): Linear(in_features=1280, out_features=1280, bias=True)\n",
       "          (proj_drop): Dropout(p=0.0, inplace=False)\n",
       "        )\n",
       "        (drop_path): DropPath(p=0.1596774160861969)\n",
       "        (norm2): LayerNorm((1280,), eps=1e-06, elementwise_affine=True)\n",
       "        (mlp): Mlp(\n",
       "          (fc1): Linear(in_features=1280, out_features=5120, bias=True)\n",
       "          (act): GELU(approximate='none')\n",
       "          (fc2): Linear(in_features=5120, out_features=1280, bias=True)\n",
       "          (drop): Dropout(p=0.0, inplace=False)\n",
       "        )\n",
       "      )\n",
       "      (10): Block(\n",
       "        (norm1): LayerNorm((1280,), eps=1e-06, elementwise_affine=True)\n",
       "        (attn): Attention(\n",
       "          (qkv): Linear(in_features=1280, out_features=3840, bias=True)\n",
       "          (attn_drop): Dropout(p=0.0, inplace=False)\n",
       "          (proj): Linear(in_features=1280, out_features=1280, bias=True)\n",
       "          (proj_drop): Dropout(p=0.0, inplace=False)\n",
       "        )\n",
       "        (drop_path): DropPath(p=0.17741934955120087)\n",
       "        (norm2): LayerNorm((1280,), eps=1e-06, elementwise_affine=True)\n",
       "        (mlp): Mlp(\n",
       "          (fc1): Linear(in_features=1280, out_features=5120, bias=True)\n",
       "          (act): GELU(approximate='none')\n",
       "          (fc2): Linear(in_features=5120, out_features=1280, bias=True)\n",
       "          (drop): Dropout(p=0.0, inplace=False)\n",
       "        )\n",
       "      )\n",
       "      (11): Block(\n",
       "        (norm1): LayerNorm((1280,), eps=1e-06, elementwise_affine=True)\n",
       "        (attn): Attention(\n",
       "          (qkv): Linear(in_features=1280, out_features=3840, bias=True)\n",
       "          (attn_drop): Dropout(p=0.0, inplace=False)\n",
       "          (proj): Linear(in_features=1280, out_features=1280, bias=True)\n",
       "          (proj_drop): Dropout(p=0.0, inplace=False)\n",
       "        )\n",
       "        (drop_path): DropPath(p=0.19516128301620483)\n",
       "        (norm2): LayerNorm((1280,), eps=1e-06, elementwise_affine=True)\n",
       "        (mlp): Mlp(\n",
       "          (fc1): Linear(in_features=1280, out_features=5120, bias=True)\n",
       "          (act): GELU(approximate='none')\n",
       "          (fc2): Linear(in_features=5120, out_features=1280, bias=True)\n",
       "          (drop): Dropout(p=0.0, inplace=False)\n",
       "        )\n",
       "      )\n",
       "      (12): Block(\n",
       "        (norm1): LayerNorm((1280,), eps=1e-06, elementwise_affine=True)\n",
       "        (attn): Attention(\n",
       "          (qkv): Linear(in_features=1280, out_features=3840, bias=True)\n",
       "          (attn_drop): Dropout(p=0.0, inplace=False)\n",
       "          (proj): Linear(in_features=1280, out_features=1280, bias=True)\n",
       "          (proj_drop): Dropout(p=0.0, inplace=False)\n",
       "        )\n",
       "        (drop_path): DropPath(p=0.21290323138237)\n",
       "        (norm2): LayerNorm((1280,), eps=1e-06, elementwise_affine=True)\n",
       "        (mlp): Mlp(\n",
       "          (fc1): Linear(in_features=1280, out_features=5120, bias=True)\n",
       "          (act): GELU(approximate='none')\n",
       "          (fc2): Linear(in_features=5120, out_features=1280, bias=True)\n",
       "          (drop): Dropout(p=0.0, inplace=False)\n",
       "        )\n",
       "      )\n",
       "      (13): Block(\n",
       "        (norm1): LayerNorm((1280,), eps=1e-06, elementwise_affine=True)\n",
       "        (attn): Attention(\n",
       "          (qkv): Linear(in_features=1280, out_features=3840, bias=True)\n",
       "          (attn_drop): Dropout(p=0.0, inplace=False)\n",
       "          (proj): Linear(in_features=1280, out_features=1280, bias=True)\n",
       "          (proj_drop): Dropout(p=0.0, inplace=False)\n",
       "        )\n",
       "        (drop_path): DropPath(p=0.23064516484737396)\n",
       "        (norm2): LayerNorm((1280,), eps=1e-06, elementwise_affine=True)\n",
       "        (mlp): Mlp(\n",
       "          (fc1): Linear(in_features=1280, out_features=5120, bias=True)\n",
       "          (act): GELU(approximate='none')\n",
       "          (fc2): Linear(in_features=5120, out_features=1280, bias=True)\n",
       "          (drop): Dropout(p=0.0, inplace=False)\n",
       "        )\n",
       "      )\n",
       "      (14): Block(\n",
       "        (norm1): LayerNorm((1280,), eps=1e-06, elementwise_affine=True)\n",
       "        (attn): Attention(\n",
       "          (qkv): Linear(in_features=1280, out_features=3840, bias=True)\n",
       "          (attn_drop): Dropout(p=0.0, inplace=False)\n",
       "          (proj): Linear(in_features=1280, out_features=1280, bias=True)\n",
       "          (proj_drop): Dropout(p=0.0, inplace=False)\n",
       "        )\n",
       "        (drop_path): DropPath(p=0.24838709831237793)\n",
       "        (norm2): LayerNorm((1280,), eps=1e-06, elementwise_affine=True)\n",
       "        (mlp): Mlp(\n",
       "          (fc1): Linear(in_features=1280, out_features=5120, bias=True)\n",
       "          (act): GELU(approximate='none')\n",
       "          (fc2): Linear(in_features=5120, out_features=1280, bias=True)\n",
       "          (drop): Dropout(p=0.0, inplace=False)\n",
       "        )\n",
       "      )\n",
       "      (15): Block(\n",
       "        (norm1): LayerNorm((1280,), eps=1e-06, elementwise_affine=True)\n",
       "        (attn): Attention(\n",
       "          (qkv): Linear(in_features=1280, out_features=3840, bias=True)\n",
       "          (attn_drop): Dropout(p=0.0, inplace=False)\n",
       "          (proj): Linear(in_features=1280, out_features=1280, bias=True)\n",
       "          (proj_drop): Dropout(p=0.0, inplace=False)\n",
       "        )\n",
       "        (drop_path): DropPath(p=0.2661290168762207)\n",
       "        (norm2): LayerNorm((1280,), eps=1e-06, elementwise_affine=True)\n",
       "        (mlp): Mlp(\n",
       "          (fc1): Linear(in_features=1280, out_features=5120, bias=True)\n",
       "          (act): GELU(approximate='none')\n",
       "          (fc2): Linear(in_features=5120, out_features=1280, bias=True)\n",
       "          (drop): Dropout(p=0.0, inplace=False)\n",
       "        )\n",
       "      )\n",
       "      (16): Block(\n",
       "        (norm1): LayerNorm((1280,), eps=1e-06, elementwise_affine=True)\n",
       "        (attn): Attention(\n",
       "          (qkv): Linear(in_features=1280, out_features=3840, bias=True)\n",
       "          (attn_drop): Dropout(p=0.0, inplace=False)\n",
       "          (proj): Linear(in_features=1280, out_features=1280, bias=True)\n",
       "          (proj_drop): Dropout(p=0.0, inplace=False)\n",
       "        )\n",
       "        (drop_path): DropPath(p=0.28387099504470825)\n",
       "        (norm2): LayerNorm((1280,), eps=1e-06, elementwise_affine=True)\n",
       "        (mlp): Mlp(\n",
       "          (fc1): Linear(in_features=1280, out_features=5120, bias=True)\n",
       "          (act): GELU(approximate='none')\n",
       "          (fc2): Linear(in_features=5120, out_features=1280, bias=True)\n",
       "          (drop): Dropout(p=0.0, inplace=False)\n",
       "        )\n",
       "      )\n",
       "      (17): Block(\n",
       "        (norm1): LayerNorm((1280,), eps=1e-06, elementwise_affine=True)\n",
       "        (attn): Attention(\n",
       "          (qkv): Linear(in_features=1280, out_features=3840, bias=True)\n",
       "          (attn_drop): Dropout(p=0.0, inplace=False)\n",
       "          (proj): Linear(in_features=1280, out_features=1280, bias=True)\n",
       "          (proj_drop): Dropout(p=0.0, inplace=False)\n",
       "        )\n",
       "        (drop_path): DropPath(p=0.301612913608551)\n",
       "        (norm2): LayerNorm((1280,), eps=1e-06, elementwise_affine=True)\n",
       "        (mlp): Mlp(\n",
       "          (fc1): Linear(in_features=1280, out_features=5120, bias=True)\n",
       "          (act): GELU(approximate='none')\n",
       "          (fc2): Linear(in_features=5120, out_features=1280, bias=True)\n",
       "          (drop): Dropout(p=0.0, inplace=False)\n",
       "        )\n",
       "      )\n",
       "      (18): Block(\n",
       "        (norm1): LayerNorm((1280,), eps=1e-06, elementwise_affine=True)\n",
       "        (attn): Attention(\n",
       "          (qkv): Linear(in_features=1280, out_features=3840, bias=True)\n",
       "          (attn_drop): Dropout(p=0.0, inplace=False)\n",
       "          (proj): Linear(in_features=1280, out_features=1280, bias=True)\n",
       "          (proj_drop): Dropout(p=0.0, inplace=False)\n",
       "        )\n",
       "        (drop_path): DropPath(p=0.3193548619747162)\n",
       "        (norm2): LayerNorm((1280,), eps=1e-06, elementwise_affine=True)\n",
       "        (mlp): Mlp(\n",
       "          (fc1): Linear(in_features=1280, out_features=5120, bias=True)\n",
       "          (act): GELU(approximate='none')\n",
       "          (fc2): Linear(in_features=5120, out_features=1280, bias=True)\n",
       "          (drop): Dropout(p=0.0, inplace=False)\n",
       "        )\n",
       "      )\n",
       "      (19): Block(\n",
       "        (norm1): LayerNorm((1280,), eps=1e-06, elementwise_affine=True)\n",
       "        (attn): Attention(\n",
       "          (qkv): Linear(in_features=1280, out_features=3840, bias=True)\n",
       "          (attn_drop): Dropout(p=0.0, inplace=False)\n",
       "          (proj): Linear(in_features=1280, out_features=1280, bias=True)\n",
       "          (proj_drop): Dropout(p=0.0, inplace=False)\n",
       "        )\n",
       "        (drop_path): DropPath(p=0.33709678053855896)\n",
       "        (norm2): LayerNorm((1280,), eps=1e-06, elementwise_affine=True)\n",
       "        (mlp): Mlp(\n",
       "          (fc1): Linear(in_features=1280, out_features=5120, bias=True)\n",
       "          (act): GELU(approximate='none')\n",
       "          (fc2): Linear(in_features=5120, out_features=1280, bias=True)\n",
       "          (drop): Dropout(p=0.0, inplace=False)\n",
       "        )\n",
       "      )\n",
       "      (20): Block(\n",
       "        (norm1): LayerNorm((1280,), eps=1e-06, elementwise_affine=True)\n",
       "        (attn): Attention(\n",
       "          (qkv): Linear(in_features=1280, out_features=3840, bias=True)\n",
       "          (attn_drop): Dropout(p=0.0, inplace=False)\n",
       "          (proj): Linear(in_features=1280, out_features=1280, bias=True)\n",
       "          (proj_drop): Dropout(p=0.0, inplace=False)\n",
       "        )\n",
       "        (drop_path): DropPath(p=0.3548387289047241)\n",
       "        (norm2): LayerNorm((1280,), eps=1e-06, elementwise_affine=True)\n",
       "        (mlp): Mlp(\n",
       "          (fc1): Linear(in_features=1280, out_features=5120, bias=True)\n",
       "          (act): GELU(approximate='none')\n",
       "          (fc2): Linear(in_features=5120, out_features=1280, bias=True)\n",
       "          (drop): Dropout(p=0.0, inplace=False)\n",
       "        )\n",
       "      )\n",
       "      (21): Block(\n",
       "        (norm1): LayerNorm((1280,), eps=1e-06, elementwise_affine=True)\n",
       "        (attn): Attention(\n",
       "          (qkv): Linear(in_features=1280, out_features=3840, bias=True)\n",
       "          (attn_drop): Dropout(p=0.0, inplace=False)\n",
       "          (proj): Linear(in_features=1280, out_features=1280, bias=True)\n",
       "          (proj_drop): Dropout(p=0.0, inplace=False)\n",
       "        )\n",
       "        (drop_path): DropPath(p=0.3725806474685669)\n",
       "        (norm2): LayerNorm((1280,), eps=1e-06, elementwise_affine=True)\n",
       "        (mlp): Mlp(\n",
       "          (fc1): Linear(in_features=1280, out_features=5120, bias=True)\n",
       "          (act): GELU(approximate='none')\n",
       "          (fc2): Linear(in_features=5120, out_features=1280, bias=True)\n",
       "          (drop): Dropout(p=0.0, inplace=False)\n",
       "        )\n",
       "      )\n",
       "      (22): Block(\n",
       "        (norm1): LayerNorm((1280,), eps=1e-06, elementwise_affine=True)\n",
       "        (attn): Attention(\n",
       "          (qkv): Linear(in_features=1280, out_features=3840, bias=True)\n",
       "          (attn_drop): Dropout(p=0.0, inplace=False)\n",
       "          (proj): Linear(in_features=1280, out_features=1280, bias=True)\n",
       "          (proj_drop): Dropout(p=0.0, inplace=False)\n",
       "        )\n",
       "        (drop_path): DropPath(p=0.39032259583473206)\n",
       "        (norm2): LayerNorm((1280,), eps=1e-06, elementwise_affine=True)\n",
       "        (mlp): Mlp(\n",
       "          (fc1): Linear(in_features=1280, out_features=5120, bias=True)\n",
       "          (act): GELU(approximate='none')\n",
       "          (fc2): Linear(in_features=5120, out_features=1280, bias=True)\n",
       "          (drop): Dropout(p=0.0, inplace=False)\n",
       "        )\n",
       "      )\n",
       "      (23): Block(\n",
       "        (norm1): LayerNorm((1280,), eps=1e-06, elementwise_affine=True)\n",
       "        (attn): Attention(\n",
       "          (qkv): Linear(in_features=1280, out_features=3840, bias=True)\n",
       "          (attn_drop): Dropout(p=0.0, inplace=False)\n",
       "          (proj): Linear(in_features=1280, out_features=1280, bias=True)\n",
       "          (proj_drop): Dropout(p=0.0, inplace=False)\n",
       "        )\n",
       "        (drop_path): DropPath(p=0.4080645442008972)\n",
       "        (norm2): LayerNorm((1280,), eps=1e-06, elementwise_affine=True)\n",
       "        (mlp): Mlp(\n",
       "          (fc1): Linear(in_features=1280, out_features=5120, bias=True)\n",
       "          (act): GELU(approximate='none')\n",
       "          (fc2): Linear(in_features=5120, out_features=1280, bias=True)\n",
       "          (drop): Dropout(p=0.0, inplace=False)\n",
       "        )\n",
       "      )\n",
       "      (24): Block(\n",
       "        (norm1): LayerNorm((1280,), eps=1e-06, elementwise_affine=True)\n",
       "        (attn): Attention(\n",
       "          (qkv): Linear(in_features=1280, out_features=3840, bias=True)\n",
       "          (attn_drop): Dropout(p=0.0, inplace=False)\n",
       "          (proj): Linear(in_features=1280, out_features=1280, bias=True)\n",
       "          (proj_drop): Dropout(p=0.0, inplace=False)\n",
       "        )\n",
       "        (drop_path): DropPath(p=0.42580646276474)\n",
       "        (norm2): LayerNorm((1280,), eps=1e-06, elementwise_affine=True)\n",
       "        (mlp): Mlp(\n",
       "          (fc1): Linear(in_features=1280, out_features=5120, bias=True)\n",
       "          (act): GELU(approximate='none')\n",
       "          (fc2): Linear(in_features=5120, out_features=1280, bias=True)\n",
       "          (drop): Dropout(p=0.0, inplace=False)\n",
       "        )\n",
       "      )\n",
       "      (25): Block(\n",
       "        (norm1): LayerNorm((1280,), eps=1e-06, elementwise_affine=True)\n",
       "        (attn): Attention(\n",
       "          (qkv): Linear(in_features=1280, out_features=3840, bias=True)\n",
       "          (attn_drop): Dropout(p=0.0, inplace=False)\n",
       "          (proj): Linear(in_features=1280, out_features=1280, bias=True)\n",
       "          (proj_drop): Dropout(p=0.0, inplace=False)\n",
       "        )\n",
       "        (drop_path): DropPath(p=0.44354841113090515)\n",
       "        (norm2): LayerNorm((1280,), eps=1e-06, elementwise_affine=True)\n",
       "        (mlp): Mlp(\n",
       "          (fc1): Linear(in_features=1280, out_features=5120, bias=True)\n",
       "          (act): GELU(approximate='none')\n",
       "          (fc2): Linear(in_features=5120, out_features=1280, bias=True)\n",
       "          (drop): Dropout(p=0.0, inplace=False)\n",
       "        )\n",
       "      )\n",
       "      (26): Block(\n",
       "        (norm1): LayerNorm((1280,), eps=1e-06, elementwise_affine=True)\n",
       "        (attn): Attention(\n",
       "          (qkv): Linear(in_features=1280, out_features=3840, bias=True)\n",
       "          (attn_drop): Dropout(p=0.0, inplace=False)\n",
       "          (proj): Linear(in_features=1280, out_features=1280, bias=True)\n",
       "          (proj_drop): Dropout(p=0.0, inplace=False)\n",
       "        )\n",
       "        (drop_path): DropPath(p=0.4612903296947479)\n",
       "        (norm2): LayerNorm((1280,), eps=1e-06, elementwise_affine=True)\n",
       "        (mlp): Mlp(\n",
       "          (fc1): Linear(in_features=1280, out_features=5120, bias=True)\n",
       "          (act): GELU(approximate='none')\n",
       "          (fc2): Linear(in_features=5120, out_features=1280, bias=True)\n",
       "          (drop): Dropout(p=0.0, inplace=False)\n",
       "        )\n",
       "      )\n",
       "      (27): Block(\n",
       "        (norm1): LayerNorm((1280,), eps=1e-06, elementwise_affine=True)\n",
       "        (attn): Attention(\n",
       "          (qkv): Linear(in_features=1280, out_features=3840, bias=True)\n",
       "          (attn_drop): Dropout(p=0.0, inplace=False)\n",
       "          (proj): Linear(in_features=1280, out_features=1280, bias=True)\n",
       "          (proj_drop): Dropout(p=0.0, inplace=False)\n",
       "        )\n",
       "        (drop_path): DropPath(p=0.4790322780609131)\n",
       "        (norm2): LayerNorm((1280,), eps=1e-06, elementwise_affine=True)\n",
       "        (mlp): Mlp(\n",
       "          (fc1): Linear(in_features=1280, out_features=5120, bias=True)\n",
       "          (act): GELU(approximate='none')\n",
       "          (fc2): Linear(in_features=5120, out_features=1280, bias=True)\n",
       "          (drop): Dropout(p=0.0, inplace=False)\n",
       "        )\n",
       "      )\n",
       "      (28): Block(\n",
       "        (norm1): LayerNorm((1280,), eps=1e-06, elementwise_affine=True)\n",
       "        (attn): Attention(\n",
       "          (qkv): Linear(in_features=1280, out_features=3840, bias=True)\n",
       "          (attn_drop): Dropout(p=0.0, inplace=False)\n",
       "          (proj): Linear(in_features=1280, out_features=1280, bias=True)\n",
       "          (proj_drop): Dropout(p=0.0, inplace=False)\n",
       "        )\n",
       "        (drop_path): DropPath(p=0.49677419662475586)\n",
       "        (norm2): LayerNorm((1280,), eps=1e-06, elementwise_affine=True)\n",
       "        (mlp): Mlp(\n",
       "          (fc1): Linear(in_features=1280, out_features=5120, bias=True)\n",
       "          (act): GELU(approximate='none')\n",
       "          (fc2): Linear(in_features=5120, out_features=1280, bias=True)\n",
       "          (drop): Dropout(p=0.0, inplace=False)\n",
       "        )\n",
       "      )\n",
       "      (29): Block(\n",
       "        (norm1): LayerNorm((1280,), eps=1e-06, elementwise_affine=True)\n",
       "        (attn): Attention(\n",
       "          (qkv): Linear(in_features=1280, out_features=3840, bias=True)\n",
       "          (attn_drop): Dropout(p=0.0, inplace=False)\n",
       "          (proj): Linear(in_features=1280, out_features=1280, bias=True)\n",
       "          (proj_drop): Dropout(p=0.0, inplace=False)\n",
       "        )\n",
       "        (drop_path): DropPath(p=0.5145161151885986)\n",
       "        (norm2): LayerNorm((1280,), eps=1e-06, elementwise_affine=True)\n",
       "        (mlp): Mlp(\n",
       "          (fc1): Linear(in_features=1280, out_features=5120, bias=True)\n",
       "          (act): GELU(approximate='none')\n",
       "          (fc2): Linear(in_features=5120, out_features=1280, bias=True)\n",
       "          (drop): Dropout(p=0.0, inplace=False)\n",
       "        )\n",
       "      )\n",
       "      (30): Block(\n",
       "        (norm1): LayerNorm((1280,), eps=1e-06, elementwise_affine=True)\n",
       "        (attn): Attention(\n",
       "          (qkv): Linear(in_features=1280, out_features=3840, bias=True)\n",
       "          (attn_drop): Dropout(p=0.0, inplace=False)\n",
       "          (proj): Linear(in_features=1280, out_features=1280, bias=True)\n",
       "          (proj_drop): Dropout(p=0.0, inplace=False)\n",
       "        )\n",
       "        (drop_path): DropPath(p=0.5322580933570862)\n",
       "        (norm2): LayerNorm((1280,), eps=1e-06, elementwise_affine=True)\n",
       "        (mlp): Mlp(\n",
       "          (fc1): Linear(in_features=1280, out_features=5120, bias=True)\n",
       "          (act): GELU(approximate='none')\n",
       "          (fc2): Linear(in_features=5120, out_features=1280, bias=True)\n",
       "          (drop): Dropout(p=0.0, inplace=False)\n",
       "        )\n",
       "      )\n",
       "      (31): Block(\n",
       "        (norm1): LayerNorm((1280,), eps=1e-06, elementwise_affine=True)\n",
       "        (attn): Attention(\n",
       "          (qkv): Linear(in_features=1280, out_features=3840, bias=True)\n",
       "          (attn_drop): Dropout(p=0.0, inplace=False)\n",
       "          (proj): Linear(in_features=1280, out_features=1280, bias=True)\n",
       "          (proj_drop): Dropout(p=0.0, inplace=False)\n",
       "        )\n",
       "        (drop_path): DropPath(p=0.550000011920929)\n",
       "        (norm2): LayerNorm((1280,), eps=1e-06, elementwise_affine=True)\n",
       "        (mlp): Mlp(\n",
       "          (fc1): Linear(in_features=1280, out_features=5120, bias=True)\n",
       "          (act): GELU(approximate='none')\n",
       "          (fc2): Linear(in_features=5120, out_features=1280, bias=True)\n",
       "          (drop): Dropout(p=0.0, inplace=False)\n",
       "        )\n",
       "      )\n",
       "    )\n",
       "    (last_norm): LayerNorm((1280,), eps=1e-06, elementwise_affine=True)\n",
       "  )\n",
       "  (refine_net): RefineNet(\n",
       "    (deconv): DeConvNet(\n",
       "      (first_conv): Sequential(\n",
       "        (0): Conv2d(1280, 640, kernel_size=(1, 1), stride=(1, 1))\n",
       "      )\n",
       "      (deconv): ModuleList(\n",
       "        (0): Sequential(\n",
       "          (0): ConvTranspose2d(640, 320, kernel_size=(4, 4), stride=(2, 2), padding=(1, 1), bias=False)\n",
       "          (1): BatchNorm2d(320, eps=1e-05, momentum=0.1, affine=True, track_running_stats=True)\n",
       "          (2): ReLU(inplace=True)\n",
       "        )\n",
       "        (1): Sequential(\n",
       "          (0): ConvTranspose2d(640, 320, kernel_size=(4, 4), stride=(2, 2), padding=(1, 1), bias=False)\n",
       "          (1): BatchNorm2d(320, eps=1e-05, momentum=0.1, affine=True, track_running_stats=True)\n",
       "          (2): ReLU(inplace=True)\n",
       "          (3): ConvTranspose2d(320, 160, kernel_size=(4, 4), stride=(2, 2), padding=(1, 1), bias=False)\n",
       "          (4): BatchNorm2d(160, eps=1e-05, momentum=0.1, affine=True, track_running_stats=True)\n",
       "          (5): ReLU(inplace=True)\n",
       "        )\n",
       "      )\n",
       "    )\n",
       "    (dec_pose): Linear(in_features=1120, out_features=96, bias=True)\n",
       "    (dec_cam): Linear(in_features=1120, out_features=3, bias=True)\n",
       "    (dec_shape): Linear(in_features=1120, out_features=10, bias=True)\n",
       "  )\n",
       "  (discriminator): Discriminator(\n",
       "    (D_conv1): Conv2d(9, 32, kernel_size=(1, 1), stride=(1, 1))\n",
       "    (relu): ReLU(inplace=True)\n",
       "    (D_conv2): Conv2d(32, 32, kernel_size=(1, 1), stride=(1, 1))\n",
       "    (pose_out): ModuleList(\n",
       "      (0-14): 15 x Linear(in_features=32, out_features=1, bias=True)\n",
       "    )\n",
       "    (betas_fc1): Linear(in_features=10, out_features=10, bias=True)\n",
       "    (betas_fc2): Linear(in_features=10, out_features=5, bias=True)\n",
       "    (betas_out): Linear(in_features=5, out_features=1, bias=True)\n",
       "    (D_alljoints_fc1): Linear(in_features=480, out_features=1024, bias=True)\n",
       "    (D_alljoints_fc2): Linear(in_features=1024, out_features=1024, bias=True)\n",
       "    (D_alljoints_out): Linear(in_features=1024, out_features=1, bias=True)\n",
       "  )\n",
       "  (keypoint_3d_loss): Keypoint3DLoss(\n",
       "    (loss_fn): L1Loss()\n",
       "  )\n",
       "  (keypoint_2d_loss): Keypoint2DLoss(\n",
       "    (loss_fn): L1Loss()\n",
       "  )\n",
       "  (mano_parameter_loss): ParameterLoss(\n",
       "    (loss_fn): MSELoss()\n",
       "  )\n",
       "  (mano): MANO(\n",
…
